AI/tflite_model.tflite (tflite, 481588 bytes, 18 tensors)

main_output/bias f4 [5]
0	0x3dd57ddf	0.10424399
1	0xbd9fa0c7	-0.07794338
2	0x3cb9c2f4	0.022675969
3	0xbd434653	-0.04767449
4	0xbd571f3e	-0.05252003

dense_1/bias f4 [32]
0	0x3d2421ce	0.0400713
1	0xbcc5dbe5	-0.024152705
2	0xbc9fdfaa	-0.019515831
3	0x3b89b68b	0.004202669
4	0x3cd36aa9	0.025807695
5	0xbdd57b1e	-0.10423873
6	0xbc31772b	-0.0108316345
7	0xbe1c5af6	-0.15269074
8	0xbd62b091	-0.055344168
9	0x3d1a2cb6	0.037640296
10	0xbda1bd94	-0.07897487
11	0x3d276739	0.040869925
12	0x3b583ab3	0.0032993972
13	0x3d0e142f	0.034687217
14	0xbd92a4c9	-0.071603365
15	0x3d93a7e6	0.072097585
16	0xbccfd8ce	-0.025371935
17	0x3c98349d	0.018579775
18	0xbc79f7ec	-0.015256863
19	0xbc60d5d8	-0.013722859
20	0xbcd004a8	-0.025392845
21	0x3d246b2f	0.04014128
22	0xbc817860	-0.01580447
23	0xbb45ca8f	-0.0030180549
24	0x3a0a2f6d	0.0005271349
25	0xbd8569f4	-0.065143496
26	0xbd5004a9	-0.050785694
27	0xbb4b78e9	-0.003104741
28	0x3c3bde33	0.011466551
29	0xbd8af6ea	-0.06785376
30	0xbd2914a8	-0.041279465
31	0xbdc97703	-0.09837153

dense/bias f4 [64]
0	0xbe17d524	-0.148274
1	0xbd5ac203	-0.05340768
2	0xbd5c28d5	-0.053749878
3	0x3c29bbca	0.010359714
4	0xbda4d3fd	-0.08048246
5	0xbd0e2cb6	-0.03471061
6	0xbd915bff	-0.07097625
7	0xbd5a9895	-0.05336817
8	0xbdde4aaf	-0.108540885
9	0x3b22984b	0.0024810012
10	0xbd8ea80f	-0.069656484
11	0xbe1d5413	-0.15364103
12	0xbd94cc4b	-0.07265528
13	0x3c53cbca	0.012927005
14	0xbcda37db	-0.026637962
15	0xbe0621e0	-0.1309886
16	0xbdbb8ee8	-0.091581166
17	0xbb52c25e	-0.003215931
18	0xbd11ee58	-0.035627693
19	0xbd5314f2	-0.051533647
20	0xbd7fadd2	-0.062421627
21	0xbda4ae3d	-0.08041046
22	0xbc7b0bdc	-0.015322652
23	0xbdc931c5	-0.09823946
24	0x3cedb58c	0.029017232
25	0x3a1754a0	0.0005772803
26	0xbde95193	-0.11392512
27	0xbd58c938	-0.052926272
28	0x3d2d33aa	0.0422856
29	0xbdd2e6f8	-0.1029796
30	0x3ceee453	0.029161608
31	0xbd91dff7	-0.07122796
32	0x3d476654	0.048681572
33	0xbd245716	-0.040122114
34	0xbdb7ac32	-0.089683905
35	0x3d459fb4	0.048248008
36	0xbd5cc583	-0.0538993
37	0xbc07f585	-0.0082982825
38	0xbe0bafb5	-0.13641246
39	0xbcff54a7	-0.031168295
40	0xbdc4346b	-0.095803104
41	0x39efd421	0.0004574368
42	0xbdd96ce7	-0.106164746
43	0xbd8d668d	-0.06904326
44	0x3ce30165	0.027710626
45	0xbdba5db0	-0.09099901
46	0x3c73c8a5	0.01487938
47	0xbd668a49	-0.056284223
48	0x3a3df862	0.000724679
49	0xbc90b073	-0.017662263
50	0xbc01d270	-0.007923707
51	0xbd08393e	-0.033257715
52	0xbd8fbac5	-0.07018045
53	0xbce1ebd2	-0.027578268
54	0xbda41cd6	-0.080133125
55	0xbd84b2d7	-0.064794235
56	0xbd3d23e5	-0.04617681
57	0xbd49c55a	-0.049260475
58	0x3d493637	0.04912397
59	0xbd8c961b	-0.06864568
60	0xbd142f90	-0.03617817
61	0xbd9569ce	-0.07295571
62	0xbc9b4dcd	-0.018957997
63	0x3cca16bd	0.024669046

conv1d_2/bias f4 [64]
0	0xbde0ca04	-0.109760314
1	0xbe784952	-0.2424672
2	0xbdcc9098	-0.099885166
3	0xbebd03f7	-0.36917087
4	0xbe3091bf	-0.17243098
5	0xbe47ef4c	-0.19524878
6	0xbe078655	-0.13234837
7	0xbe67d0cd	-0.22638245
8	0xbe83e35a	-0.25759393
9	0xbe856bc8	-0.26058793
10	0xbea2539e	-0.3170442
11	0xbe84a84b	-0.25909647
12	0xbea1f298	-0.31630397
13	0xbe8c391e	-0.27387327
14	0xbdb8c2e4	-0.090215474
15	0xbe90161c	-0.28141868
16	0xbe729d1c	-0.23692745
17	0xbde74bd5	-0.11293761
18	0xbe2a39db	-0.16623633
19	0xbe3031b7	-0.17206465
20	0xbe3379cf	-0.17526935
21	0xbe6b5567	-0.22981797
22	0x3c9747e4	0.018466897
23	0xbea1af96	-0.31579274
24	0xbea77dca	-0.32713157
25	0xbea2b005	-0.31774917
26	0xbe8b32a8	-0.27187085
27	0xbdf66d0e	-0.12032519
28	0xbe7ecf11	-0.24883677
29	0x3e1b04a8	0.15138495
30	0xbce6f38c	-0.028192304
31	0xbd7d0b02	-0.061778076
32	0xbe7f8d15	-0.24956162
33	0xbd5c15eb	-0.05373184
34	0xbe05986f	-0.1304643
35	0xbe854272	-0.26027256
36	0xbda244dd	-0.07923291
37	0xbe7feff2	-0.24993876
38	0xbe36a416	-0.17836031
39	0xbea7433a	-0.32668477
40	0xbe102f2e	-0.14080498
41	0xbe615461	-0.22004844
42	0xbf034600	-0.51278687
43	0xbe5db804	-0.21652228
44	0xbe4e7f01	-0.20165636
45	0xbe9022b5	-0.2815148
46	0xbd903b13	-0.070425175
47	0xbd43fd96	-0.04784926
48	0xbe8e7cea	-0.27829677
49	0xbe6edcc4	-0.23326403
50	0xbe7c8a47	-0.24662124
51	0x3d3c7b68	0.046016127
52	0xbec2f816	-0.380799
53	0x3b5b3552	0.003344853
54	0xbe4e4d43	-0.2014666
55	0xbe0df16c	-0.13861626
56	0xbe83fc8a	-0.2577861
57	0xbe4eb77c	-0.20187181
58	0xbe2d640f	-0.169327
59	0xbd3d17f2	-0.046165414
60	0xbe8092f1	-0.25112107
61	0xbe6a9639	-0.22908868
62	0xbe82156e	-0.25406975
63	0xbe0e0538	-0.13869178

conv1d_1/bias f4 [64]
0	0xbe8cd692	-0.27507454
1	0xbd725a7c	-0.059168324
2	0xbe814fd8	-0.25256228
3	0xbd724ad8	-0.059153408
4	0x3e0c3d9f	0.13695382
5	0xbe4ac61a	-0.19802132
6	0xbc306d15	-0.010768195
7	0x3d72e3ad	0.05929916
8	0xbe525a2e	-0.20542213
9	0xbdbfa734	-0.09358063
10	0x3dea4d56	0.11440532
11	0xbcb7014c	-0.022339486
12	0xbd8112d1	-0.06302417
13	0xbd0de151	-0.034638707
14	0x3c27aef7	0.010234586
15	0xbdebab1b	-0.11507245
16	0xbc121587	-0.008916265
17	0xbdbffe63	-0.09374692
18	0xbd1b52be	-0.037920706
19	0xbdffa4f2	-0.12482633
20	0xbdadbab9	-0.0848288
21	0xbe4633f8	-0.19355762
22	0xbd9e92cc	-0.07742843
23	0xbdd88b09	-0.10573394
24	0xbe1338b8	-0.14377105
25	0xbdae2ea9	-0.085049935
26	0xbde9f93e	-0.11424492
27	0x3e112fca	0.14178386
28	0xbe2884d3	-0.16456918
29	0xbd90c058	-0.07067937
30	0xbe7189d1	-0.23587729
31	0x3d23d9f6	0.040002786
32	0xbcfd867c	-0.030947916
33	0x3d173121	0.036912087
34	0xbe0c3ab6	-0.13694271
35	0xbe1d7631	-0.15377118
36	0xbc8c377e	-0.017116304
37	0xbe96d037	-0.2945573
38	0xbd63d274	-0.055620626
39	0xbddc08b7	-0.1074385
40	0xbd9120a9	-0.070863076
41	0x3d5ea155	0.054353077
42	0xbc757393	-0.014981168
43	0xbd6ebde2	-0.058286555
44	0xbdc91a3b	-0.09819456
45	0xbe80714c	-0.2508644
46	0xbe828a54	-0.2549616
47	0xbb77f552	-0.0037835431
48	0xbdfc1f09	-0.12310607
49	0xbcd0e82a	-0.02550133
50	0x3c834063	0.016021913
51	0xbe286a3a	-0.16446772
52	0xbe289cac	-0.16466016
53	0xbd8e72b8	-0.069554746
54	0xbd2a4272	-0.041567273
55	0xbe47010a	-0.1943399
56	0xbe16cc63	-0.14726405
57	0xbd8aa306	-0.067693755
58	0x3d095871	0.03353161
59	0xbd99b38a	-0.075049475
60	0x3e417a37	0.18894278
61	0xbd58e407	-0.05295184
62	0x3d66893b	0.056283217
63	0xbe798958	-0.24368799

conv1d/bias f4 [64]
0	0xbceaf37d	-0.028680557
1	0x3d4c5a9a	0.049891092
2	0x3d7919f7	0.060815778
3	0xbb12af67	-0.002238238
4	0x3da10966	0.07863121
5	0x3d8712b4	0.06595364
6	0x3d6a81b7	0.057252612
7	0x3d90ff19	0.07079906
8	0xbd25df52	-0.040496178
9	0x3d840b52	0.06447472
10	0x3db3a5ef	0.08771884
11	0x3d09c66b	0.03363649
12	0xbca02818	-0.019550368
13	0xbcd8e232	-0.026475046
14	0x3d45fe1e	0.04833805
15	0xbd850585	-0.064951934
16	0xbd2a19a6	-0.041528367
17	0xbdb0642d	-0.08612857
18	0x3db0b50a	0.086282805
19	0xbd8919f9	-0.06694407
20	0xbd6b80da	-0.05749593
21	0x3d90dda6	0.07073526
22	0x3d52c219	0.051454637
23	0x3deb0802	0.11476137
24	0xbd542295	-0.051790792
25	0x3d01b8e0	0.03167045
26	0xbc8ec609	-0.017428415
27	0xbc32a65e	-0.010903923
28	0xbc46e9fa	-0.012140745
29	0xbd110e08	-0.035413772
30	0x3d098f88	0.033584148
31	0xbb08a784	-0.00208518
32	0x3d3e3842	0.04644037
33	0xbcc5ad88	-0.024130598
34	0x3d36da69	0.044641886
35	0x3c8fabe0	0.017538011
36	0xbd071823	-0.032982003
37	0x3d3e0bcf	0.04639798
38	0x3b1070a0	0.0022039786
39	0xbcb06f67	-0.021537496
40	0xbd971a0e	-0.073780164
41	0xbd0ce2c2	-0.03439594
42	0x3d704c2e	0.0586664
43	0xbd272cdf	-0.040814277
44	0x00000000	0.0
45	0xbd3f0e7c	-0.046644673
46	0x3d67572e	0.056479625
47	0x3da0eb6d	0.07857404
48	0x3cd4b697	0.025965972
49	0x3d9aa14f	0.075502984
50	0xbca8dbf6	-0.020612698
51	0xbc7a426f	-0.015274628
52	0x3d09e75d	0.03366791
53	0xbc382e08	-0.011241443
54	0x3dce31ca	0.1006809
55	0x3b21bed5	0.0024680395
56	0x3d898e97	0.0671665
57	0x3d24c7da	0.040229656
58	0xbd531ce6	-0.05154123
59	0x3d2d4766	0.04230442
60	0xbd32f82c	-0.043693706
61	0xbda3086c	-0.07960591
62	0xbd6eb6b8	-0.058279723
63	0xbc837db3	-0.016051149

model/batch_normalization_1/batchnorm/mul f4 [64]
0	0x41f4105c	30.507988
1	0x3f40efcf	0.7536592
2	0x3f63c835	0.88977367
3	0x3fadd9a2	1.3582041
4	0x3f968643	1.1759723
5	0x41a2e303	20.360846
6	0x3f737150	0.95094776
7	0x3fddc0b8	1.7324438
8	0x3f68731f	0.9080066
9	0x3fbac01d	1.4589878
10	0x3f5e19fa	0.8675839
11	0x3f9601ff	1.1719359
12	0x4012788a	2.2886071
13	0x3f194893	0.59876364
14	0x3f7374bd	0.95100003
15	0x3fceab12	1.6145957
16	0x40135874	2.3022738
17	0x3ffbc80f	1.9670428
18	0x3ec14e85	0.37755218
19	0x3f34cb8d	0.70623094
20	0x3eb1b18c	0.3470577
21	0x3ef671fa	0.48133832
22	0x3fe8cf2b	1.8188223
23	0x3f67eb1b	0.9059312
24	0x3f4cd4f0	0.80012417
25	0x3fe55a2e	1.7918146
26	0x3f4cc5b7	0.7998919
27	0x3f983118	1.1889982
28	0x3f4d3f36	0.8017458
29	0x4000498c	2.004489
30	0x4006e30a	2.1076074
31	0x3f108153	0.56447333
32	0x3f36be9a	0.71384585
33	0x3f7981ef	0.9746389
34	0x3f136b63	0.57585734
35	0x3fc2d714	1.5221887
36	0x3f885a54	1.0652566
37	0x3f610eb9	0.8791309
38	0x405076a4	3.2572412
39	0x3f56b9a4	0.83877015
40	0x3f8b7eb1	1.0898038
41	0x3fa1066e	1.2580087
42	0x3fa79c20	1.309452
43	0x3f82af11	1.0209676
44	0x3ef8c635	0.4858872
45	0x41fc2780	31.519287
46	0x3f2fd23a	0.68680155
47	0x4005ba8a	2.0895104
48	0x405c174b	3.4389217
49	0x3f160c81	0.5861283
50	0x3fb0576c	1.3776679
51	0x3f806478	1.0030661
52	0x3fdcecee	1.7259805
53	0x3ff96e64	1.9486814
54	0x3f0f64f4	0.5601342
55	0x4008d5eb	2.1380565
56	0x3fc05488	1.5025797
57	0x3fad5b51	1.3543493
58	0x3fffeb6c	1.999372
59	0x3f55352e	0.8328427
60	0x3fa8f479	1.3199607
61	0x3fa13754	1.259501
62	0x3ee925b0	0.45536566
63	0x41e418b0	28.512054

model/batch_normalization_1/batchnorm/sub f4 [64]
0	0x3ea1ad21	0.315774
1	0xbf997605	-1.1989142
2	0xbf031a2c	-0.5121181
3	0xbf110b26	-0.56657636
4	0xbf606621	-0.87655836
5	0xbb2d4648	-0.0026439596
6	0xbf65e98c	-0.8980949
7	0xbf83a8a9	-1.0285846
8	0xbd81d808	-0.06340033
9	0xbdf4b388	-0.11948305
10	0xbf40a936	-0.75258195
11	0xbe3a07ba	-0.1816701
12	0xbf5e52e8	-0.86845255
13	0x3b8633c0	0.0040955245
14	0xbf728f78	-0.94750166
15	0xbdd5fe74	-0.10448924
16	0xbf8e0cc8	-1.109765
17	0x3e24573a	0.160489
18	0xbef34849	-0.47516087
19	0xbf0903e3	-0.53521556
20	0xbdad1408	-0.08451086
21	0xbedd63c2	-0.43240172
22	0xbf5f1355	-0.87138873
23	0x3c7ab2e0	0.015301436
24	0x3da2493e	0.07924126
25	0xbb68b080	-0.0035505593
26	0xbf380753	-0.71886176
27	0xbf843028	-1.0327196
28	0x3e2fc763	0.17165904
29	0xbe8c86f0	-0.274467
30	0x3d5ccb54	0.053904846
31	0xbf2815e8	-0.65658426
32	0xbe60714c	-0.2191822
33	0xbf69237e	-0.9106978
34	0x3e3337da	0.17501774
35	0x3d6fb900	0.05852604
36	0xbeffb4cb	-0.49942622
37	0xbecd0ac4	-0.40047276
38	0xbf27b149	-0.6550489
39	0xbf19db2e	-0.60100067
40	0xbeda7ef0	-0.4267497
41	0xbeff5e68	-0.49876714
42	0xbf263e34	-0.64938664
43	0xbf2a353b	-0.66487473
44	0xbd86a3c8	-0.065742075
45	0x3e7c8327	0.24659406
46	0xbdc3d1aa	-0.095614746
47	0xbe3bbd1c	-0.18333858
48	0xbd0062f0	-0.031344354
49	0xbeaae333	-0.33376464
50	0xbfa076f8	-1.2536306
51	0x3b9bb040	0.0047512352
52	0x3e645b90	0.22300553
53	0xbe803975	-0.25043836
54	0xbdab5fd4	-0.08367887
55	0x3e418394	0.1889785
56	0xbd9acfce	-0.07559167
57	0xbe2e857c	-0.17043108
58	0xbed1a75c	-0.40947998
59	0xbf1d87be	-0.6153525
60	0xbf81d1b7	-1.0142125
61	0xbe492e77	-0.19646631
62	0x3d9e7bac	0.07738432
63	0x3ee52d43	0.44761094

model/batch_normalization_2/batchnorm/mul f4 [64]
0	0x3f841fb4	1.0322175
1	0x3f0d53ef	0.552062
2	0x3f17f486	0.5935749
3	0x3fae914b	1.363809
4	0x3f1dda52	0.61661255
5	0x3f61940a	0.88116515
6	0x3fc11cbf	1.5086898
7	0x3f7b3091	0.9812098
8	0x3faa8fec	1.3325171
9	0x3f36dc91	0.7143031
10	0x3f25149c	0.6448457
11	0x3fcae182	1.585007
12	0x3f820e97	1.0160702
13	0x3f2c4bf7	0.67303413
14	0x3eb84d3a	0.3599642
15	0x3f80d327	1.0064439
16	0x3f8e2b08	1.1106882
17	0x3f27d47b	0.65558594
18	0x3fb65c7f	1.4246978
19	0x3f170664	0.58994126
20	0x3f194a1c	0.59878707
21	0x3ef99374	0.4874531
22	0x3ef2f782	0.47454458
23	0x3e40c8ce	0.18826601
24	0x3f9a63c5	1.2061697
25	0x3ee98d31	0.45615533
26	0x3fb9ae7a	1.4506371
27	0x3f39ed51	0.7262774
28	0x3f255582	0.645836
29	0x3f37b647	0.7176251
30	0x3f4da371	0.80327517
31	0x3fb67246	1.4253623
32	0x3f84205a	1.0322373
33	0x3e8b2959	0.27179983
34	0x3fa03a66	1.2517822
35	0x3f1591d8	0.58425665
36	0x3f52c5f3	0.82333297
37	0x3f0f7a6a	0.56046164
38	0x3e42ba6a	0.19016424
39	0x3f99c6e2	1.2013819
40	0x3f84780e	1.0349138
41	0x3f880362	1.0626032
42	0x3f2cf4ea	0.6756121
43	0x3f9fdce6	1.2489288
44	0x3e98fd7d	0.29880896
45	0x3ec4a654	0.38408148
46	0x3f0d4322	0.5518056
47	0x3eacfd02	0.3378678
48	0x3e3bbba9	0.18333305
49	0x3f836ef7	1.0268239
50	0x3f634e8c	0.8879173
51	0x3f732050	0.9497118
52	0x3ef65313	0.48110256
53	0x3fa9eea4	1.3275952
54	0x3f6c5d70	0.92330074
55	0x3f25c1e5	0.64748985
56	0x3f2f672b	0.68516797
57	0x3f4ef4b7	0.80842155
58	0x3f5cb7ef	0.8621816
59	0x3f714b15	0.9425519
60	0x3f91bd5b	1.1385912
61	0x3f356e54	0.7087147
62	0x3eddc8e1	0.4331732
63	0x3f6a59bf	0.9154319

model/batch_normalization_2/batchnorm/sub f4 [64]
0	0xbe929317	-0.28627846
1	0xbe68d7aa	-0.2273852
2	0xbf1f0bb5	-0.6212724
3	0xbd83ca96	-0.064351246
4	0xbdd5dafc	-0.104421586
5	0xbe8e431a	-0.2778557
6	0xbd9da329	-0.07697136
7	0xbe062dfa	-0.13103476
8	0xbe564cb0	-0.20927691
9	0xbe139437	-0.14412008
10	0xbe00e282	-0.12586406
11	0xbdd75405	-0.10514072
12	0xbe3f5a8c	-0.18686885
13	0xbe300bf8	-0.17192066
14	0xbf36024a	-0.7109724
15	0xbe38392c	-0.1799056
16	0xbdd5a0bf	-0.104310505
17	0xbf45c2a7	-0.7725014
18	0xbe581d22	-0.21104863
19	0xbf1f2c3b	-0.62176865
20	0xbdef11f8	-0.11673349
21	0xbe4807b6	-0.19534191
22	0xbf19a1e1	-0.6001263
23	0xbde9dd63	-0.11419179
24	0xbe4cd278	-0.20002162
25	0xbf058d41	-0.5216866
26	0xbd9a0148	-0.07519776
27	0xbe431d49	-0.1905414
28	0xbf44c515	-0.76863223
29	0xbf5137a2	-0.81725514
30	0xbf18f0b9	-0.59742314
31	0xbe4432b2	-0.19159964
32	0xbe0eb35e	-0.1393561
33	0xbec7e5c2	-0.3904248
34	0xbe68bf88	-0.22729313
35	0xbe36ad84	-0.17839628
36	0xbe9e5609	-0.30925015
37	0xbe4d7f26	-0.20068035
38	0xbe0d6505	-0.13808067
39	0xbdc72c2b	-0.09725221
40	0xbee08597	-0.4385192
41	0xbe989978	-0.29804587
42	0xbe67367e	-0.22579381
43	0xbd403072	-0.0469212
44	0xbe080292	-0.1328223
45	0xbe361ab4	-0.17783624
46	0xbf43c1ce	-0.764676
47	0xbf49a620	-0.7876911
48	0xbdd3e695	-0.103467144
49	0xbe063326	-0.13105449
50	0xbdf8a7bb	-0.12141367
51	0xbfb79995	-1.4343745
52	0xbe4992d1	-0.19684912
53	0xbf0d664f	-0.55234236
54	0xbe789dfb	-0.24279015
55	0xbde1cb3a	-0.110250905
56	0xbec758bf	-0.38934895
57	0xbe68a502	-0.22719195
58	0xbe8d27b9	-0.27569368
59	0xbe337766	-0.17526016
60	0xbe51c8f9	-0.20486821
61	0xbe356919	-0.17715873
62	0xbe2628ed	-0.1622655
63	0xbec2e60c	-0.38066137

model/batch_normalization/batchnorm/mul f4 [64]
0	0x41e9c143	29.219366
1	0x41dc04c2	27.502323
2	0x41cb33e3	25.400335
3	0x41f9d324	31.228096
4	0x41a05abb	20.044302
5	0x41b065a6	22.049633
6	0x41e5ce2d	28.725672
7	0x41ac5bb8	21.544785
8	0x41b7a551	22.95572
9	0x41a4efe7	20.61714
10	0x420b0176	34.751427
11	0x41c3e139	24.484972
12	0x420358df	32.83679
13	0x41e56c18	28.67778
14	0x420db36d	35.42522
15	0x420491df	33.142452
16	0x418bdade	17.481869
17	0x411195a9	9.099038
18	0x41881f12	17.015171
19	0x41abc910	21.473175
20	0x41d33e9a	26.405567
21	0x41d0cee8	26.101028
22	0x41816a0e	16.176785
23	0x41ddf367	27.743849
24	0x41fb6dae	31.428555
25	0x41d473a3	26.556463
26	0x41d053b6	26.040874
27	0x42050ab9	33.26047
28	0x41fcb6e8	31.58931
29	0x42063c07	33.55862
30	0x419c85ea	19.565388
31	0x42116364	36.34706
32	0x41e5fbed	28.74801
33	0x41e96480	29.174072
34	0x41f0e389	30.111101
35	0x42084a4e	34.072563
36	0x41fb051b	31.377493
37	0x4147e36c	12.493023
38	0x414aab66	12.666845
39	0x41f3f986	30.496838
40	0x41f2839c	30.314262
41	0x41f58b41	30.692995
42	0x41905f40	18.046509
43	0x41bac96a	23.348347
44	0x41fcfb72	31.622776
45	0x41faba6a	31.341022
46	0x41c74f38	24.913681
47	0x4215fe40	37.49829
48	0x41346796	11.27529
49	0x41f1d2f9	30.228014
50	0x41d3dbcc	26.482323
51	0x41f8c85d	31.097834
52	0x41ec334f	29.525053
53	0x41f9f4b7	31.24449
54	0x41a07511	20.057161
55	0x41bf757f	23.932371
56	0x419d5d58	19.670578
57	0x41c6681d	24.800837
58	0x41e83146	29.02406
59	0x421c1500	39.020508
60	0x40ca6d7f	6.325866
61	0x41c86966	25.051464
62	0x40d5b735	6.678614
63	0x41ee958c	29.82302

model/batch_normalization/batchnorm/sub f4 [64]
0	0xbbd40494	-0.0064702723
1	0xbf0a7220	-0.5408039
2	0xbee7b5ac	-0.45255792
3	0xbb6832d1	-0.003543068
4	0xbfe89b87	-1.8172463
5	0xbfaae1ee	-1.3350198
6	0xbfec8302	-1.847748
7	0xbfc8e380	-1.5694427
8	0xbd80c0af	-0.062867515
9	0xbfab0803	-1.336182
10	0xc03b3ebb	-2.9257038
11	0xbeb70776	-0.3574788
12	0xbcf17ed7	-0.029479427
13	0xb9952537	-0.00028447222
14	0xbfd89402	-1.6920168
15	0xbd348976	-0.044076405
16	0xbe0c249f	-0.13685845
17	0xbf07f960	-0.5311489
18	0xbfb4760d	-1.4098526
19	0xbeb93657	-0.3617427
20	0xbd95af70	-0.07308853
21	0xbff6e9ca	-1.9290097
22	0xbf984ddc	-1.1898761
23	0xc04c65c0	-3.1937103
24	0xbb4a7e9b	-0.0030898217
25	0xbf4ef6d1	-0.8084536
26	0xbcb8a04b	-0.022537371
27	0x3d0b7240	0.034044504
28	0xbe951b4b	-0.29122385
29	0x3d1a75a8	0.037709862
30	0xbf2ad6f5	-0.6673425
31	0xbd9043e6	-0.070442006
32	0xbf054554	-0.5205891
33	0xbc2e1cf1	-0.010627017
34	0xbf9b2270	-1.2119884
35	0xbe3b3af6	-0.1828421
36	0x3b9b3e35	0.0047376403
37	0xbf836497	-1.0265073
38	0xbef9e973	-0.4881092
39	0xbe86910a	-0.2628253
40	0x3dc4df3c	0.09612891
41	0xbe371866	-0.17880401
42	0xbf833f39	-1.0253669
43	0x3c8d7b2f	0.017270653
44	0x3e0f1d74	0.13976079
45	0x3db80506	0.08985333
46	0xbfa6e55d	-1.3038746
47	0xc0334903	-2.8013313
48	0xbf4196ac	-0.7562053
49	0xc009ebfa	-2.1550279
50	0xbd4912fc	-0.04909037
51	0x3e29e78a	0.16592231
52	0xbe76eaab	-0.24112956
53	0xbbd45e7f	-0.0064809914
54	0xc0038596	-2.0550284
55	0xbe59a08c	-0.2125265
56	0xbfbbc2bd	-1.4668804
57	0xbf57ef92	-0.8434993
58	0x3cb15a0e	0.021649387
59	0xbfbf410e	-1.4941728
60	0xbf173312	-0.590623
61	0x3b4c0b27	0.0031134577
62	0xbf0e502d	-0.5559109
63	0xbd43dba6	-0.047816895

model/dense/MatMul f4 [64, 1408]
0	0xbe2eee64	-0.17083126
1	0x3e29972f	0.16561578
2	0x3de97180	0.113986015
3	0xbe702aca	-0.23453823
4	0x3d010dfe	0.031507485
5	0xbe1f20b1	-0.15539815
6	0xbd8dfb35	-0.069326796
7	0x3dbf1e51	0.09331954
8	0x3e1274de	0.14302394
9	0xbdefed02	-0.117151275
10	0xbe45b5d1	-0.19307639
11	0x3e29fa77	0.16599451
12	0x3e6446e3	0.22292666
13	0x3e49bad1	0.19700171
14	0xbdc6ad86	-0.09701066
15	0xbc6580dc	-0.014007773
16	0xbd5726c5	-0.052527208
17	0xbd204c26	-0.03913512
18	0xbd03679f	-0.032081243
19	0xbd8b4766	-0.068007275
20	0xbd2df8ac	-0.04247348
21	0x3e03dc12	0.12876919
22	0xbe821e5e	-0.25413793
23	0x3de84a23	0.113422655
24	0xbd42e884	-0.047585025
25	0xbe4c359d	-0.19942327
26	0x3d983e59	0.07433767
27	0xbd57caf0	-0.05268377
28	0xbdcedf67	-0.10101204
29	0x3d99415f	0.07483172
30	0xbd9990f3	-0.0749835
31	0xbe13ca6b	-0.14432685
32	0xbe2bf0eb	-0.16791122
33	0x3d4df7d6	0.050285183
34	0xbdaebfc1	-0.08532668
35	0xbd8310b8	-0.06399673
36	0x3df37477	0.11887448
37	0x3d50b019	0.05094919
38	0x3d7815e4	0.06056775
39	0xbdfb84be	-0.12281178
40	0xbe612347	-0.21986113
41	0xbe1b1ae1	-0.15146972
42	0x3dfee788	0.12446505
43	0xbca109ff	-0.019658087
44	0x3e53d3ab	0.20686214
45	0x3d2ee7b7	0.04270145
46	0x3d7f92ed	0.06239598
47	0x3d4bb602	0.049734123
48	0xbcd879a7	-0.026425196
49	0xbd513fdd	-0.051086295
50	0x3e6ee7cf	0.23330615
51	0xbc1c56ce	-0.00954218
52	0x3e24e9eb	0.16104858
53	0x3c8e12b1	0.017342897
54	0x3da5ff40	0.08105326
55	0xbdb65833	-0.089035414
56	0xbca7db73	-0.020490384
57	0xbe1e87b0	-0.15481448
58	0xbdd68922	-0.10475375
59	0xbe31d892	-0.17367771
60	0xbe3cfca7	-0.18455754
61	0xbdf4d999	-0.11955566
62	0xbd4e76ff	-0.050406452
63	0xbd1a18ef	-0.037621435
64	0xbe0417cb	-0.12899701
65	0xbdaebbb7	-0.085318975
66	0xbd33dfec	-0.04391472
67	0xbbc2179c	-0.0059232246
68	0x3e0106c0	0.12600231
69	0x3e0fb259	0.14032878
70	0xbddc9a47	-0.107716136
71	0xbe5c2c17	-0.21501194
72	0xbadd9387	-0.0016904928
73	0xbe4cff9b	-0.20019381
74	0xbe4a3cc5	-0.19749744
75	0xbda5187e	-0.08061312
76	0x3e38c2d2	0.18043068
77	0xbc419043	-0.01181418
78	0xbd78515c	-0.060624465
79	0xbd2818be	-0.04103922
80	0xbdd5bf6b	-0.10436901
81	0xbcb36270	-0.021897525
82	0x3ac3feb3	0.0014953226
83	0xbe39119d	-0.18073125
84	0xbd593231	-0.053026382
85	0xbdd47cae	-0.10375343
86	0xbd75ed50	-0.060040772
87	0xb9c22d4d	-0.00037036315
88	0xbe17d848	-0.14828598
89	0x3da2846e	0.07935415
90	0xbd2ef77c	-0.04271649
91	0xbcff8e46	-0.031195771
92	0xbd5c8102	-0.05383397
93	0x3e06ad35	0.1315201
94	0xbc8eecb6	-0.017446857
95	0xbe228bda	-0.15873662
96	0x3e4dd752	0.2010167
97	0xbd7d4553	-0.06183369
98	0x3aa3f0cc	0.0012507676
99	0x39c39976	0.00037307636
100	0xbdf96c56	-0.121788666
101	0xbdb831ee	-0.08993898
102	0xbbd44e57	-0.0064790654
103	0xbe0d8af8	-0.13822544
104	0x3d0d52b3	0.034502696
105	0x3cf2d4ce	0.029642489
106	0xbdb723c3	-0.08942368
107	0x3c30bee1	0.010787697
108	0xbdfe111d	-0.12405608
109	0xbd37ff5b	-0.04492126
110	0x3dfcf26a	0.12350924
111	0xbe026009	-0.12731947
112	0x3d423b56	0.04741987
113	0xbb74bc15	-0.003734355
114	0x3dc6151f	0.09671997
115	0xbe020ebc	-0.12700933
116	0x3d5c28a2	0.053749688
117	0xbe877aee	-0.26460975
118	0xbe32448a	-0.17408958
119	0xbd422013	-0.04739387
120	0x3e766ce6	0.24064979
121	0x3d286b29	0.04111782
122	0xbe37ce24	-0.1794973
123	0xbdb63d9e	-0.08898471
124	0xbe0eb94e	-0.13937876
125	0xbe213ff1	-0.15747048
126	0x3ca05c29	0.019575195
127	0xbdb3b83d	-0.08775375
128	0xbdbbef71	-0.09176529
129	0xbd338dc8	-0.043836385
130	0xbd72eac7	-0.059305932
131	0x3c8e125d	0.01734274
132	0xbe8ab4eb	-0.27091154
133	0xbe463e33	-0.19359665
134	0xbe23baf6	-0.15989289
135	0xbc1bad00	-0.009501696
136	0x3e5ba314	0.21448928
137	0x3da28b35	0.07936708
138	0x3d503f5c	0.050841674
139	0x3cf451ad	0.029824102
140	0xbe141818	-0.14462316
141	0xbbcef922	-0.00631632
142	0x3e2d65d8	0.16933382
143	0x3c6de938	0.014520936
144	0xbe0a6d64	-0.13518292
145	0x3e2b252d	0.167134
146	0x3e608331	0.21925046
147	0x3e8cf105	0.27527633
148	0xbd37b84f	-0.044853505
149	0x3d604a72	0.054758497
150	0x3d13c555	0.036076862
151	0x3c6750c9	0.014118382
152	0xbd93c104	-0.07214549
153	0x3e05da07	0.13071452
154	0x3d9ddc64	0.07708052
155	0xbe317ede	-0.17333552
156	0x3e83c2c2	0.25734526
157	0xbe3c4bd0	-0.18388295
158	0xba827b82	-0.0009955021
159	0x3d99fa6c	0.07518467
160	0xbe4165fe	-0.18886563
161	0xbdc807d1	-0.09767116
162	0xbe4ad40c	-0.19807452
163	0xbc9889b5	-0.018620351
164	0xbe5a6222	-0.21326497
165	0x3b87ebc1	0.004147977
166	0x3ce46b08	0.027883068
167	0xbdcad862	-0.09904553
168	0x3e336e36	0.17522511
169	0xbe81ba4c	-0.25337446
170	0x3e1ea395	0.15492089
171	0xbddf61c3	-0.109073184
172	0x3cd97c9b	0.026548674
173	0xbd0a5e8c	-0.033781573
174	0x3d669901	0.05629826
175	0x3d6a65ab	0.057225864
176	0x3cba90cd	0.022774125
177	0xbdf07548	-0.117411196
178	0x3d4e24c9	0.05032805
179	0x3e389aec	0.18027848
180	0xbc13c20e	-0.009018434
181	0x3cad3b10	0.021146327
182	0xbe15c5c4	-0.14626223
183	0xbe2c6e81	-0.16839029
184	0x3e48a456	0.19593939
185	0xbe83315a	-0.2562359
186	0xbd16ccfb	-0.03681658
187	0xbbed1393	-0.0072349994
188	0xbe3a5242	-0.18195441
189	0x3c77374f	0.01508887
190	0x3cc670e5	0.024223754
191	0xbe4b5f58	-0.1986059
192	0xbd72576b	-0.0591654
193	0xbda94276	-0.082646295
194	0xbd1b585f	-0.037926074
195	0x3d6bcb68	0.05756703
196	0x3d0c0526	0.034184597
197	0x3c8e06a8	0.017337158
198	0x3df7e424	0.12104061
199	0xbd7b62ce	-0.061373524
200	0xbd4c011e	-0.049805753
201	0x3dcabcdf	0.098993056
202	0x3dd66224	0.104679376
203	0xbe03446b	-0.12819068
204	0xbd71b307	-0.059008624
205	0x3d8fdce6	0.07024555
206	0x3df627da	0.1201932
207	0x3d63f6a2	0.05565513
208	0xbe61cefb	-0.22051613
209	0x3de99134	0.114046484
210	0x3c8005d8	0.015627787
211	0x3ceeca68	0.02914925
212	0xbd88472b	-0.06654199
213	0x3dbbf6f7	0.09177964
214	0x3a357dec	0.0006923366
215	0x3d8b8ffa	0.06814571
216	0x3e06abd3	0.13151483
217	0x3dfaea2b	0.12251695
218	0x3d93180e	0.071823224
219	0xbd9e5091	-0.077302106
220	0x3d937c03	0.07201388
221	0xbcb3a384	-0.021928556
222	0xbe337042	-0.17523292
223	0xbe0451f2	-0.12921885
224	0x3d80ff1f	0.062986605
225	0x3e14dc21	0.14537098
226	0x3d6900d5	0.05688556
227	0xbe064edd	-0.13116021
228	0xbda00977	-0.07814305
229	0xbde9a385	-0.11408142
230	0x3d8638b7	0.06553786
231	0xbd26532e	-0.04060667
232	0x3df31fc2	0.11871292
233	0xbe520e61	-0.20513298
234	0xbdb29a45	-0.08720831
235	0xbd852023	-0.0650027
236	0xbe199bcb	-0.15000837
237	0xbd5d95ec	-0.054098055
238	0x3a5e43b2	0.00084787153
239	0x3e385019	0.17999305
240	0x3dc6439c	0.09680864
241	0x3d98dca5	0.074639596
242	0x3d20128f	0.0390802
243	0xbe07fb98	-0.13279569
244	0xbb8dcaa7	-0.0043271366
245	0x3d7fa1ed	0.062410284
246	0xbdc48000	-0.095947266
247	0x3dcf2b2d	0.10115657
248	0xbce322b5	-0.02772651
249	0xbdbd4eac	-0.09243521
250	0xbc3c123e	-0.011478959
251	0x3d00094a	0.03125886
252	0xbe10490e	-0.14090368
253	0x3c9aba29	0.018887596
254	0xbd80eef0	-0.06295574
255	0xbe0b9bfb	-0.1363372

model/dense_1/MatMul f4 [32, 64]
0	0xbd244a8b	-0.040110152
1	0x3cbaaf05	0.022788534
2	0x3e23447b	0.15944092
3	0xbd8f208c	-0.0698863
4	0xbdd10943	-0.10206845
5	0xbe519e5b	-0.20470564
6	0x3e7946a3	0.24343352
7	0x3e244071	0.16040207
8	0x3de4326f	0.11142432
9	0x3e2e4594	0.1701873
10	0xbe63296d	-0.22183771
11	0xbe92affa	-0.28649884
12	0x3dc2b9a3	0.09508064
13	0x3d7d18f1	0.061791364
14	0x3ea52ef0	0.32262373
15	0x3cd265e8	0.025683358
16	0xbd5dc790	-0.054145396
17	0xbd51524b	-0.05110387
18	0xbe2a12f2	-0.1660879
19	0xbd741892	-0.059593745
20	0xbe72a11f	-0.23694275
21	0xbe0f021b	-0.13965647
22	0x3ba528b2	0.0050402516
23	0x3df12a36	0.11775629
24	0xbc6225f8	-0.013802998
25	0x3e1c714b	0.15277593
26	0xbe25fe55	-0.16210301
27	0x3e25da6c	0.16196603
28	0x3e1d40a1	0.15356685
29	0x3e5c5ab8	0.21518981
30	0x3db6f34d	0.08933125
31	0xbe8d2e73	-0.275745
32	0xbd8d8373	-0.069098376
33	0xbd02bec0	-0.031920195
34	0x3d2f1fcc	0.042754933
35	0xbe475f8f	-0.19470046
36	0xbe0e072a	-0.1386992
37	0x3b1f7a2c	0.0024334295
38	0xbe64b93e	-0.2233629
39	0x3dd81334	0.10550538
40	0x3e24da92	0.16099003
41	0xbedb3250	-0.42811823
42	0x3e870591	0.26371434
43	0xbdcca00a	-0.099914625
44	0x3e2f7645	0.1713496
45	0x3e2ea0fa	0.17053595
46	0x3eb1df55	0.347407
47	0x3e718e95	0.23589547
48	0xbd218b7c	-0.039439663
49	0xbea42142	-0.32056624
50	0xbe2438db	-0.16037314
51	0x3e2c95b8	0.16853988
52	0xbe5f3350	-0.21796918
53	0xbe36d209	-0.1785356
54	0x3d1bcdb7	0.03803798
55	0x3e2a1d8d	0.16612835
56	0x3e842a89	0.25813702
57	0x3e26a030	0.16272044
58	0xbd4f40a5	-0.05059876
59	0xbde5a402	-0.11212923
60	0x3d3022d7	0.043001976
61	0x3e391d34	0.18077546
62	0x3dae2b93	0.08504405
63	0xbdd5ef55	-0.104460396
64	0xbe04e464	-0.12977749
65	0xbe55676f	-0.20840238
66	0xbcb57639	-0.0221511
67	0xbe11f03f	-0.14251803
68	0xbea4610c	-0.3210529
69	0xbe66c96e	-0.22537777
70	0x3ea9644e	0.3308434
71	0x3cc83caf	0.024442999
72	0x3e1704c6	0.14747915
73	0xbd15ed62	-0.03660334
74	0xbd2e1fce	-0.0425108
75	0x3e5b73ab	0.21430843
76	0xbdeeac79	-0.1165399
77	0xbee3b5b6	-0.44474572
78	0x3e0bbcb1	0.13646199
79	0xbda386e2	-0.07984711
80	0xbe56362b	-0.20919101
81	0xbe890327	-0.26760218
82	0x3e9de102	0.3083573
83	0x3e6bc3e9	0.23023953
84	0xbea1c5a2	-0.31596094
85	0x3b795517	0.0038045102
86	0x3b5a2c91	0.0033290724
87	0x3e2cfa6f	0.16892408
88	0xbd280c03	-0.04102708
89	0xbead007f	-0.3378944
90	0xbe093011	-0.13397242
91	0xbeb0a4f3	-0.34500846
92	0xbd98d309	-0.07462127
93	0x3e75f316	0.24018511
94	0xbe1aaf01	-0.15105821
95	0x3e822b20	0.25423527
96	0xbe39ffa0	-0.1816392
97	0xbd0b77b7	-0.034049716
98	0xbddc77f6	-0.10765068
99	0x3d5f5768	0.054526716
100	0x3e8ad33a	0.27114278
101	0x3de5f3c6	0.11228137
102	0xbe08d91f	-0.13364075
103	0xbda3d0ee	-0.079988346
104	0xbe84e451	-0.25955442
105	0xbe36e661	-0.1786132
106	0xbd58078e	-0.05274158
107	0xbe104c35	-0.1409157
108	0x3d7c0678	0.061529607
109	0xbd07df70	-0.03317207
110	0x3e4c86f6	0.19973359
111	0xbe2c927c	-0.16852754
112	0x3d9c3e1c	0.07629034
113	0xbd381025	-0.04493727
114	0xbe8f178e	-0.27947658
115	0xbe6e3be2	-0.23265031
116	0x3bd7cb1a	0.006585491
117	0x3ccaa410	0.024736434
118	0x3e620f4d	0.2207615
119	0x3d8002fb	0.062505685
120	0xbd361471	-0.04445309
121	0x3de3d5ac	0.11124739
122	0x3cf5f0b5	0.030022005
123	0x3e9963ae	0.29958862
124	0xbdbed336	-0.09317629
125	0xbe6e3a35	-0.23264392
126	0xbdb53fb6	-0.088500425
127	0x3d52448d	0.051334906
128	0xbca2bace	-0.019864466
129	0xbe09b08f	-0.13446258
130	0x3d9456bd	0.072431065
131	0x3ddb8750	0.10719168
132	0x3e34b5b3	0.17647438
133	0x3defac93	0.11702838
134	0xbe13da76	-0.14438805
135	0xbe57c245	-0.21070202
136	0x3e50835a	0.20362607
137	0x3e6c0fb5	0.23052867
138	0x3e4e6300	0.20154953
139	0xbe14dad4	-0.14536601
140	0x3ca31a1b	0.019909909
141	0xba32e22a	-0.0006823862
142	0xbc214d07	-0.009845025
143	0xbe2c9e68	-0.16857302
144	0xbe4296c4	-0.19002825
145	0x3cd3067a	0.025759924
146	0xbe8d84e3	-0.27640447
147	0x3ecbc20f	0.39796492
148	0xbe391093	-0.18072729
149	0x3abada5a	0.0014255748
150	0xbe09be06	-0.13451394
151	0x3dbfdaf8	0.09367937
152	0xbdd32e07	-0.103115134
153	0x3d81f799	0.06346054
154	0xbdaac642	-0.08338596
155	0x3e41669d	0.188868
156	0xbebd14c7	-0.36929914
157	0x3d7d24b2	0.061802574
158	0xbd5175f7	-0.05113789
159	0x3daca3a2	0.08429648
160	0xbe4a50be	-0.19757363
161	0x3e5a12f5	0.21296294
162	0xbe4cc7c4	-0.1999808
163	0xbdcbf918	-0.0995962
164	0xbe2053ff	-0.15657042
165	0x3e91061b	0.2832497
166	0xbec8d3f4	-0.39224207
167	0x3e43b515	0.19112046
168	0xbd96ff16	-0.073728725
169	0xbea581de	-0.32325643
170	0x3e551ae0	0.20811033
171	0xbf0091f7	-0.50222725
172	0x3d2a6830	0.041603267
173	0x3e8f3e18	0.2797706
174	0x3de080a3	0.109620355
175	0x3c8585ae	0.016299095
176	0x3ea40818	0.32037425
177	0x3e67eda2	0.22649243
178	0xbe963741	-0.2933903
179	0xbe6e4a56	-0.23270544
180	0x3e11c094	0.14233619
181	0xbcdb7713	-0.026790177
182	0x3dbd12d0	0.09232104
183	0xbdbef8af	-0.093247764
184	0x3e988137	0.29786083
185	0xbe103246	-0.14081678
186	0x3e34a609	0.17641462
187	0xbe16bb69	-0.14719929
188	0xbcb0c99e	-0.021580514
189	0xbd90f603	-0.07078173
190	0x3e8da811	0.27667287
191	0xbeea20e5	-0.45728222
192	0x3d844d64	0.064600736
193	0xbeafba43	-0.34321794
194	0x3e26ab13	0.16276197
195	0x3e76778c	0.24069041
196	0xbece7466	-0.4032318
197	0x3e04ba0d	0.12961598
198	0xbe19358a	-0.1496183
199	0xbe932526	-0.2873928
200	0xbe6939f2	-0.2277601
201	0xbc7bb6d3	-0.015363413
202	0x3e2dd504	0.1697579
203	0x3e99831b	0.29982838
204	0x3d85b308	0.06528288
205	0xbdc79e74	-0.097470194
206	0x3da595b0	0.08085191
207	0xbda2398a	-0.07921131
208	0x3e683938	0.22678077
209	0xbe16935f	-0.14704655
210	0x3e564f28	0.20928633
211	0x3e2c0a9b	0.1680092
212	0xbe1f4ed1	-0.1555741
213	0xbe08414c	-0.13306159
214	0x3d342fef	0.043991026
215	0x3ec4c0ba	0.3842829
216	0x3cfe1dd9	0.031020092
217	0x3df6418d	0.120242216
218	0x3dd00154	0.10156503
219	0x3e62b2b0	0.22138476
220	0x3bfd8462	0.0077367285
221	0xbe8116d9	-0.25212744
222	0x3eb072cd	0.34462586
223	0xbe65e3d3	-0.2245019
224	0x3c8f4dae	0.017493095
225	0x3e6dbf7e	0.2321758
226	0x3e90b889	0.2826579
227	0x3daaa948	0.08333069
228	0x3dfa6aac	0.12227377
229	0xbe8e4f95	-0.2779509
230	0x3ebd8157	0.3701274
231	0xbd6ec8b2	-0.058296867
232	0xbeff33f5	-0.49844328
233	0x3ded0a60	0.115742445
234	0xbdae6f85	-0.085173644
235	0x3da6ec0d	0.08150492
236	0xbe477ceb	-0.19481246
237	0x3d1fd809	0.039024387
238	0xbe3931d6	-0.18085417
239	0x3c404828	0.011735953
240	0xbe841ecb	-0.25804743
241	0x3de0865b	0.10963126
242	0x3ea1ce0d	0.31602517
243	0xbde86288	-0.11346918
244	0xbcbd0bf2	-0.023076985
245	0xbdc01c28	-0.093803704
246	0x3e141cdb	0.14464132
247	0x3e87e338	0.26540542
248	0xbc20994b	-0.009802173
249	0xbe51a2f4	-0.20472318
250	0xbd95b415	-0.073097385
251	0xbe219020	-0.15777636
252	0xbdc76d95	-0.09737698
253	0xbe0c6872	-0.13711718
254	0xbe2cb546	-0.16866025
255	0xbd6848f4	-0.0567102

model/main_output/MatMul f4 [5, 32]
0	0x3e40902a	0.18804994
1	0x3de550b8	0.111970365
2	0x3dc88d8d	0.09792624
3	0xbe09c81e	-0.13455245
4	0xbc368a6d	-0.011141402
5	0xbe64d3ac	-0.22346371
6	0xbd211a29	-0.03933159
7	0xbe958c60	-0.2920866
8	0x3e4793f6	0.19490036
9	0x3d74f37f	0.05980253
10	0xbe528cc8	-0.20561516
11	0xbe2d8818	-0.16946447
12	0x3d90c1ab	0.07068189
13	0x3eb1d034	0.3472916
14	0x3da88343	0.08228161
15	0x3eaa2646	0.33232325
16	0xbd2ef1fc	-0.042711243
17	0xbdcd561c	-0.1002619
18	0xbe8a8c27	-0.27060053
19	0x3df61c22	0.12017085
20	0x3e799069	0.24371494
21	0xbddf2105	-0.1089497
22	0xbd15255c	-0.03641258
23	0x3e890a76	0.26765794
24	0x3d05d98b	0.03267817
25	0xbe0f6a51	-0.140054
26	0xbd65872b	-0.05603711
27	0x3e7bd9d2	0.2459481
28	0xbb3b2574	-0.002855626
29	0x3de84e41	0.11343051
30	0xbe46b1ee	-0.19403812
31	0xbeca1be9	-0.3947442
32	0x3dc39111	0.095491536
33	0x3e4b2e96	0.1984199
34	0x3ea6aa6b	0.32551894
35	0x3d826919	0.06367702
36	0xbe55619a	-0.20838013
37	0xbd5c59a6	-0.053796433
38	0x3e98afaf	0.29821536
39	0x3ee85ffe	0.45385736
40	0xbe999b3a	-0.3000124
41	0xbe83a145	-0.25708976
42	0x3e17753c	0.14790815
43	0xbead094b	-0.33796152
44	0xbe9315b0	-0.28727484
45	0xbe897888	-0.2684977
46	0x3e92b296	0.28651875
47	0x3e21dd8c	0.1580717
48	0x3ea88729	0.3291562
49	0xbde2a1ef	-0.11066043
50	0x3eb7ee11	0.35923818
51	0x3e8fbe8c	0.28075063
52	0xbe27c543	-0.16383843
53	0xbe0b9cf0	-0.13634086
54	0xbde2152f	-0.11039197
55	0x3e8a1f4b	0.26977
56	0xbe355b39	-0.1771058
57	0xbca2d4ba	-0.019876827
58	0xbef09a53	-0.4699274
59	0x3e9fcd7f	0.3121147
60	0xbebf6f1a	-0.3738945
61	0x3e01048d	0.12599392
62	0xbf01f539	-0.50764805
63	0xbeb36cc9	-0.35043934
64	0xbe427ee0	-0.18993711
65	0xbea2ec78	-0.31821036
66	0xbe422e8f	-0.18963073
67	0xbe01335f	-0.12617253
68	0x3eb53b17	0.35396644
69	0xbead778f	-0.33880278
70	0x3e0d8493	0.13820104
71	0x3e856455	0.2605311
72	0xba9bfb68	-0.0011900486
73	0x3de383f5	0.11109153
74	0x3ea0204a	0.31274635
75	0x3e3cf8d3	0.18454294
76	0xbd9b8d70	-0.075953364
77	0xbe636b36	-0.22208866
78	0x3e2f5ec9	0.17126001
79	0x3e21c772	0.15798739
80	0x3e8b8319	0.27248457
81	0xbe85258a	-0.26005203
82	0xbeb534f4	-0.35391963
83	0x3e8690e7	0.26282427
84	0xbd402098	-0.046906084
85	0x3df18af9	0.11794085
86	0xbd872d18	-0.06600398
87	0xbe3e929e	-0.18610618
88	0x3e318cb1	0.17338826
89	0x3d53db91	0.051723067
90	0xbe32c801	-0.17459108
91	0xbd29ed40	-0.041486025
92	0xbdb83b78	-0.08995718
93	0x3b03b2af	0.0020095517
94	0x3dcd85db	0.100352965
95	0xbea1db2a	-0.3161252
96	0x3c5fdad5	0.0136630135
97	0x3f12d9c2	0.5736352
98	0xbe7f8c85	-0.24955948
99	0xbf048081	-0.5175858
100	0xbea631e9	-0.32459953
101	0x3e763644	0.24044138
102	0x3eb80144	0.35938466
103	0xbe3720e9	-0.17883648
104	0x3e73ba91	0.23801638
105	0x3e893769	0.26800087
106	0x3e8425f7	0.25810215
107	0x3e991be9	0.29904106
108	0xbe10d45a	-0.14143506
109	0x3e61a378	0.22035015
110	0xbe7f3558	-0.24922693
111	0xbebb23f6	-0.36550874
112	0x3ed67ee6	0.4189369
113	0xbd641d30	-0.055691898
114	0xbdbcff57	-0.0922839
115	0xbe8c5a36	-0.27412575
116	0x3dfceba6	0.12349634
117	0x3ee418f5	0.4455029
118	0xbe6cf0ca	-0.23138729
119	0xbce3e7fb	-0.027820578
120	0x3e0e92e2	0.13923219
121	0xbe8caa8d	-0.2747387
122	0x3e9f454c	0.31107557
123	0xbd924d80	-0.07143688
124	0xbe1aa0d6	-0.15100417
125	0xbe87b167	-0.26502535
126	0xbe1d0809	-0.15335096
127	0xbeea8be6	-0.4580986
128	0x3e29c13d	0.16577621
129	0x3e0d6098	0.13806379
130	0x3e8043d9	0.25051764
131	0xbe81ebe3	-0.2537528
132	0xbd8d1db6	-0.068904325
133	0x3d0efca3	0.034908902
134	0xbe8fd7c8	-0.28094316
135	0xbeb4eebc	-0.3533839
136	0x3e2d4144	0.16919428
137	0xbe7d35cb	-0.24727552
138	0x3e0ee7e7	0.13955651
139	0x3d2d97b0	0.04238099
140	0xbd9fdecb	-0.07806166
141	0x3e52a5d3	0.2057107
142	0x3e77d25a	0.24201337
143	0xbe354afb	-0.17704384
144	0xbe990022	-0.29882914
145	0xbf06930c	-0.52568126
146	0xbe7f3e9e	-0.2492623
147	0x3ecaa5ef	0.39579722
148	0x3ddb335b	0.10703155
149	0xbe900301	-0.28127292
150	0xbecfa1bf	-0.4055309
151	0xbeae49b4	-0.34040606
152	0xbe6fc57c	-0.23415178
153	0x3dc97e83	0.09838583
154	0xbd8aad17	-0.067712955
155	0x3e635727	0.22201215
156	0xbbcd309f	-0.0062618996
157	0xbebbe1ef	-0.3669581
158	0x3dc51cc0	0.09624624
159	0x3e035599	0.12825622

model/conv1d/Conv1D f4 [64, 1, 6, 1]
0	0xbda87422	-0.082252756
1	0x3c9b2cf4	0.018942334
2	0xbbf03a87	-0.0073311958
3	0x3c4d831d	0.012543467
4	0x3c60eea3	0.01372877
5	0xba8b86a7	-0.0010644988
6	0xbe790bb1	-0.24320866
7	0xbde9420a	-0.11389549
8	0xbe096233	-0.13416366
9	0xbe47fcc6	-0.19530019
10	0xbd34c524	-0.04413332
11	0x3e5d75c0	0.2162695
12	0xbed6b9f2	-0.4193874
13	0xbed16fdc	-0.40905654
14	0xbe9e0d1d	-0.3086938
15	0xbe9c2172	-0.30494267
16	0xbea008c7	-0.31256697
17	0xbc0c4eb6	-0.008563688
18	0xbdf49777	-0.11942952
19	0xbde1330a	-0.10996063
20	0x3c23daa9	0.010000863
21	0xbc3b3a08	-0.01142741
22	0xbd927936	-0.071520254
23	0xbd6277c6	-0.055290006
24	0x3d2d4185	0.042298812
25	0x3e8be1a4	0.27320588
26	0x3db33754	0.087507874
27	0x3a2f2f95	0.00066828105
28	0xbe693885	-0.22775467
29	0xbdcdc91d	-0.10048125
30	0x3e7fa640	0.24965763
31	0x3dbab1ec	0.09115967
32	0x3baaf004	0.0052166004
33	0x3c35e5d6	0.01110216
34	0xbe260bb8	-0.16215408
35	0xbe3a828c	-0.18213862
36	0x3e4b4ee6	0.19854316
37	0x3c0546f5	0.008134593
38	0xbe807c80	-0.25094986
39	0xbd01ae29	-0.031660233
40	0x3de324a6	0.110909745
41	0xbbf0683a	-0.0073366435
42	0x3e4d301e	0.20037887
43	0x3e52cf7b	0.2058696
44	0xbcf78a01	-0.030217173
45	0x3d46766d	0.048452783
46	0xbe481200	-0.19538116
47	0xbe588a5b	-0.21146528
48	0x3e03b1e2	0.12860826
49	0x3c619528	0.013768472
50	0xbd4a8729	-0.049445305
51	0xbe1362ad	-0.1439311
52	0xbc0b0c7b	-0.008486862
53	0xbda6077e	-0.08106898
54	0xbdf9888e	-0.12184249
55	0x3e4defaf	0.20110963
56	0x3d9a7b72	0.075430766
57	0xbcd2562c	-0.025675856
58	0xbd3585b8	-0.044316977
59	0xbd23bb47	-0.039973523
60	0xbd9a2ee7	-0.07528477
61	0x3dfcc9a4	0.123431474
62	0xbe2b4440	-0.16725254
63	0x3bdfbb92	0.00682778
64	0x3e601eca	0.21886745
65	0xbe000159	-0.12500514
66	0x3d2c4dba	0.042066313
67	0x3e597ad7	0.21238266
68	0x3d5d9a11	0.054102007
69	0xbb74de7b	-0.0037364054
70	0xbea753c7	-0.32681105
71	0xbea120fe	-0.31470484
72	0xbdb7ba97	-0.08971136
73	0xbe13075d	-0.14358278
74	0x3bb44eaf	0.005502544
75	0x3e2937ed	0.1652524
76	0xbce1dfb3	-0.027572488
77	0xbe848d5a	-0.25889093
78	0xbca3406c	-0.01992818
79	0x3d27ff9b	0.04101525
80	0xbe0a40ac	-0.13501233
81	0xbdaac28a	-0.08337887
82	0xbd56a0fa	-0.052399613
83	0x3d31848b	0.043339293
84	0xbe60af6a	-0.21941915
85	0xbdc4c1d8	-0.09607285
86	0x3e7e9ff6	0.24865708
87	0x3d390eb3	0.045180034
88	0xbde8d94e	-0.113695726
89	0x3dbe1c97	0.09282797
90	0x3e82dff5	0.2556149
91	0x3b95c623	0.004570739
92	0xbe224d38	-0.15849769
93	0x3cdab204	0.026696213
94	0x3e127e6a	0.14306036
95	0xbe01d82c	-0.1268012
96	0x3dba0a63	0.09084012
97	0xbe308b5b	-0.1724066
98	0xbd87f715	-0.06638924
99	0x3e41cb67	0.18925248
100	0x3d714568	0.05890408
101	0x3ddef209	0.10886008
102	0x3dc8e6fd	0.098096825
103	0x3e826ab7	0.25472042
104	0x3dd30665	0.10303954
105	0xbc32ea0e	-0.010920061
106	0x3ce7f36b	0.028314313
107	0x3decc5ba	0.11561151
108	0xbcf06fe2	-0.029350225
109	0x3dd4abe8	0.10384351
110	0xbdd6427c	-0.104619
111	0x3d1923af	0.037387546
112	0x3d55dc8b	0.05221228
113	0xbdaf7911	-0.085680135
114	0x3e67d8a9	0.22641243
115	0xbdca674e	-0.09882985
116	0xbdf587b7	-0.11988776
117	0x3d4c2bfb	0.04984663
118	0xbc4adde7	-0.012382007
119	0x3dd716d9	0.10502405
120	0xbdac04c6	-0.08399348
121	0xbd0c2b1b	-0.034220796
122	0xbdfa9f85	-0.12237457
123	0xbe41808d	-0.18896694
124	0x3c7dfea3	0.015502605
125	0x3d1c5bf1	0.03817362
126	0x3e0b7264	0.13617855
127	0x3ce6ea8b	0.02818801
128	0xbe48dee2	-0.19616273
129	0x3e097fe9	0.134277
130	0x3d684402	0.056705482
131	0xbe0f461e	-0.13991591
132	0x3cac15b6	0.021006446
133	0x3ddb3ef0	0.10705364
134	0xbdb09211	-0.0862161
135	0xbda8877f	-0.08228969
136	0x3dadfaaf	0.0849508
137	0x3d6d04d6	0.05786594
138	0x3da942b9	0.082646795
139	0xbdd0c425	-0.101936616
140	0x3e1509b0	0.14554477
141	0xbd235774	-0.039878324
142	0xbe3b2040	-0.18274021
143	0x3d8c8917	0.06862085
144	0x3cb0624f	0.021531252
145	0x3cf6e708	0.030139461
146	0xbc593374	-0.013256896
147	0xbc7ebe9f	-0.015548377
148	0xbe01b822	-0.12667897
149	0x3cc5e1f5	0.024155596
150	0x3e5e85c9	0.21730722
151	0xbe0f2d87	-0.13982211
152	0xbda3cd43	-0.07998135
153	0xbd8c91c1	-0.06863738
154	0xbc8d0665	-0.017214963
155	0x3d81839b	0.0632393
156	0x3dc0e9f4	0.09419623
157	0x3dc793f8	0.0974502
158	0xbdaf01f7	-0.08545297
159	0x3dc6a1f5	0.096988596
160	0xbdb3eb35	-0.087850966
161	0xbe4bd7ca	-0.19906536
162	0xbce7a0ac	-0.028274857
163	0x3e231f2f	0.15929864
164	0xbcce8cd7	-0.025213642
165	0xbe8e8826	-0.27838248
166	0xbe31910e	-0.1734049
167	0x3e107c1b	0.14109842
168	0xbcd41c7c	-0.025892489
169	0xbc8477f8	-0.016170487
170	0xbc2585df	-0.010102718
171	0xba6cf000	-0.00090384483
172	0xbc0ca3d0	-0.008583978
173	0xbdef9892	-0.11699022
174	0x3d1033a2	0.03520549
175	0xbd9987c5	-0.07496599
176	0x3cc19992	0.023632798
177	0xbe33fb1b	-0.17576258
178	0xbe3432ef	-0.17597555
179	0x3dd7f7d0	0.10545313
180	0xbddcce60	-0.107815504
181	0xbde5769c	-0.112042636
182	0xbe0586b3	-0.13039665
183	0x3da05a35	0.078297056
184	0x3e35cbf6	0.17753586
185	0x3de193d8	0.11014527
186	0xbe887434	-0.26651156
187	0xbecd0a60	-0.40046978
188	0xbe576acb	-0.21036832
189	0x3bba6c28	0.0056891628
190	0x3d3583a8	0.04431501
191	0x3e306901	0.17227556
192	0xbe9c73f2	-0.3055721
193	0xbe4f3229	-0.20233978
194	0xbda3b654	-0.07993761
195	0xbda07a23	-0.07835796
196	0x3d8cf29f	0.06882214
197	0x3e69a69f	0.22817467
198	0xbeef4783	-0.46734247
199	0xbe3111f3	-0.17292003
200	0x3bb2605b	0.0054436154
201	0x3d397174	0.045274213
202	0xbdc72d25	-0.097254075
203	0x3e1c37e4	0.15255696
204	0xbe204510	-0.15651345
205	0xbe7c7148	-0.24652588
206	0xbd88baf1	-0.06676281
207	0x3d6ada2f	0.057336982
208	0x3e54f420	0.20796251
209	0x3e5752fe	0.21027753
210	0xbdb831e0	-0.08993888
211	0x3e63a597	0.22231136
212	0x3e1ebbfa	0.15501395
213	0xbe79047e	-0.2431812
214	0xbe588062	-0.21142724
215	0xbe30f37e	-0.17280385
216	0xbd2f0d81	-0.042737488
217	0xbd516bdd	-0.051128257
218	0xbdc54974	-0.09633151
219	0x3b325b9c	0.0027215248
220	0xbb998136	-0.0046845926
221	0x3d123d6e	0.035703115
222	0x3b24e8ce	0.0025163176
223	0x3d1e937a	0.038714863
224	0x3e2b074d	0.16702004
225	0x3d1b70c5	0.037949342
226	0xbd464b76	-0.04841181
227	0x3b5aee11	0.0033406059
228	0x3d993d6c	0.074824184
229	0x3d4d4edd	0.050124038
230	0xbd7acd0c	-0.061230704
231	0xbad8145d	-0.0016485561
232	0x3dbedb2e	0.09319149
233	0x3d98be0b	0.07458123
234	0xbd43fff9	-0.047851536
235	0xbe03a156	-0.12854514
236	0x3d90ce32	0.07070579
237	0xbd871b99	-0.06597061
238	0xbd63b39b	-0.055591207
239	0xbce43380	-0.027856588
240	0xbd30a0a3	-0.043121945
241	0x3ce5b198	0.028038785
242	0x3d83093a	0.06398244
243	0xbd94a8d6	-0.072587654
244	0xbdc95adc	-0.09831783
245	0xbe0beb76	-0.1366404
246	0x3d43da66	0.047815703
247	0x3e7be667	0.2459961
248	0xbd5c4ac3	-0.053782236
249	0xbe7eca35	-0.24881823
250	0xbdba3e99	-0.09093971
251	0xbe0b5c51	-0.13609435
252	0xbe06ef1d	-0.13177152
253	0x3e10cf8a	0.1414167
254	0xbca6a780	-0.020343542
255	0x3d2dade2	0.042402156

model/conv1d_1/Conv1D f4 [64, 1, 3, 64]
0	0x3d9c2a01	0.07625199
1	0x3ed9d34a	0.42544013
2	0x3d157327	0.03648677
3	0x3d76a65f	0.060217258
4	0xbdcf9670	-0.101361156
5	0xbdba46d2	-0.09095539
6	0xbd7d4fda	-0.06184373
7	0xbc867d68	-0.01641722
8	0xbd204eef	-0.039137777
9	0xbdf079b9	-0.11741967
10	0xbdd40b8f	-0.10353767
11	0xbdeb3b83	-0.1148596
12	0xbd9d4bf8	-0.076805055
13	0xbe3d7d62	-0.18504861
14	0xbe91af57	-0.28454086
15	0xbe5573af	-0.20844911
16	0xbd73910a	-0.059464492
17	0xbdde2a71	-0.10847939
18	0xbde2684b	-0.110550486
19	0x3d29daa7	0.04146829
20	0x3ea337ec	0.31878603
21	0xbd10832e	-0.035281353
22	0xbdb817a2	-0.089888826
23	0xbcb1337d	-0.021630997
24	0xbda35ec9	-0.07977063
25	0xbe4cba01	-0.1999283
26	0xbd83e0f5	-0.064393915
27	0xbe026993	-0.12735586
28	0x3ee28cfa	0.44248182
29	0xbdba54a9	-0.09098179
30	0xbdbe1bdf	-0.0928266
31	0xbbac725a	-0.005262655
32	0x3e5566b6	0.20839962
33	0x3ccad306	0.024758827
34	0xbc6531be	-0.01398891
35	0xbddcb361	-0.10776401
36	0x3d24e0f5	0.0402536
37	0xbd25a8a7	-0.040444043
38	0x3d3a440b	0.045475047
39	0x3e89e0e2	0.26929384
40	0xbeacc114	-0.33741057
41	0x3e62421d	0.22095533
42	0xbc02c0b3	-0.007980513
43	0x3da7db83	0.081961654
44	0xbec89017	-0.39172432
45	0xbe4a5bd8	-0.19761598
46	0x3d4dc9e8	0.05024138
47	0xbdb54dd7	-0.088527374
48	0xbd88532f	-0.06656491
49	0xbdf01ee3	-0.11724641
50	0x3ddb0288	0.10693842
51	0xbec7140e	-0.38882488
52	0x3dce957c	0.10087106
53	0xbe451197	-0.19244991
54	0x3d9ee3f3	0.077583216
55	0xbd94346f	-0.072365634
56	0x3cd6ce56	0.026221436
57	0x3d93c6ce	0.07215653
58	0xbe2e63b9	-0.17030229
59	0xbd8f495a	-0.069964126
60	0x3d10e628	0.035375744
61	0xbd931939	-0.07182545
62	0xbe22cc64	-0.15898281
63	0x3c7d79e4	0.0154709555
64	0xbd9cc1d9	-0.07654161
65	0x3e2d1a85	0.16904648
66	0x3e1420d4	0.14465648
67	0x3de3c53f	0.11121606
68	0xbe159ebf	-0.14611338
69	0x3c22450a	0.0099041555
70	0xbd39c46d	-0.04535334
71	0x3d79e907	0.061013248
72	0x3d8c3d9e	0.0684769
73	0xbe2b98f3	-0.16757564
74	0x3d224811	0.03961951
75	0xbdab30da	-0.08358927
76	0x3e51d921	0.20492984
77	0xbdb6ffbc	-0.08935496
78	0x3c19b8a2	0.009382399
79	0xbdb88347	-0.09009414
80	0xbbbf460b	-0.005837207
81	0x3d5a8acd	0.053355027
82	0x3c530779	0.0128802
83	0x3d97f1d3	0.07419171
84	0x3e250ef3	0.16118984
85	0x3e0e1f90	0.13879228
86	0xbc98adb6	-0.01863752
87	0xbcae5077	-0.021278603
88	0xbe243f43	-0.16039757
89	0x3d182e56	0.037153564
90	0x3db76d7c	0.08956429
91	0x3b696c71	0.0035617615
92	0x3eebab58	0.46029162
93	0x3d84a83c	0.06477401
94	0xbd9c4e7f	-0.076321594
95	0x3dc69c72	0.09697808
96	0x3d6e81af	0.058229145
97	0x3cecec41	0.028921248
98	0xbe81fcd3	-0.25388202
99	0xbe9e99ac	-0.30976617
100	0x3e7a6b97	0.24455105
101	0xbda5dae6	-0.08098392
102	0xbde72832	-0.112869635
103	0x3eb87095	0.36023393
104	0xbe253ed8	-0.16137254
105	0x3d4a260b	0.049352687
106	0xbcc61829	-0.024181442
107	0x3dcc3dc8	0.09972721
108	0xbe96581c	-0.29364097
109	0xbbe4dbef	-0.006984226
110	0xbe00e265	-0.12586363
111	0x3d8afd8a	0.0678664
112	0x3d1653e1	0.036701087
113	0xbdc637c0	-0.09678602
114	0xbc9317d3	-0.017955696
115	0xbeaae58a	-0.3337825
116	0xbd26345a	-0.04057727
117	0xbe4161bd	-0.1888494
118	0x3c984d0c	0.018591426
119	0x3e0b7db6	0.13622174
120	0xbc62fdd2	-0.013854461
121	0x3db1a7b3	0.08674564
122	0xbd6675da	-0.056264736
123	0x3e2b67a5	0.16738756
124	0xbd41c2a1	-0.047304753
125	0xbdc0ea37	-0.09419673
126	0xbd5cb07e	-0.053879254
127	0xbd5d19d7	-0.05397972
128	0xbc67f67e	-0.014157889
129	0xbe257ca9	-0.16160835
130	0xbc8bb026	-0.017051768
131	0xbda1ea7b	-0.07906052
132	0xbe127778	-0.14303386
133	0xbbaa8822	-0.0052042166
134	0x3db517c5	0.08842424
135	0xbe066192	-0.13123158
136	0x3e15b287	0.14618884
137	0xbdbc9110	-0.09207356
138	0xbe30c9d8	-0.17264497
139	0xbe64e03f	-0.22351168
140	0x3dafe64a	0.08588846
141	0x3d9516fc	0.072797745
142	0x3d9d8440	0.0769124
143	0x3c7af886	0.015318042
144	0xbd9a6abf	-0.075398915
145	0x3da5561d	0.080730654
146	0xbd17c9e9	-0.03705779
147	0x3c9e2039	0.019302474
148	0x3d4d4e51	0.050123516
149	0xbdefde39	-0.117123075
150	0x3cd03471	0.025415631
151	0xbdcd758c	-0.10032186
152	0x3d3b9b4b	0.045802396
153	0xbd16c5f6	-0.036809884
154	0xbe1134de	-0.14180323
155	0x3d92914b	0.07156619
156	0x3ea94a97	0.3306472
157	0x3e1e0cba	0.15434542
158	0xba873c86	-0.001031772
159	0xbe83fbd9	-0.25778082
160	0xbe1ce131	-0.15320279
161	0x3d5586f8	0.05213067
162	0xbdcf47b2	-0.10121097
163	0xbda6f10a	-0.08151443
164	0x3d3d4cc9	0.046215806
165	0x3cfb8326	0.030702185
166	0xbd0eeafb	-0.034892064
167	0x3e4b8bf2	0.19877604
168	0xbe7a3c6b	-0.2443711
169	0xbd34729d	-0.044054616
170	0xbdda350a	-0.10654648
171	0xbc540334	-0.012940217
172	0xbe529c83	-0.20567517
173	0xbdf0110d	-0.11722002
174	0xbdcb9a84	-0.09941581
175	0x3e146b58	0.14494073
176	0xbe2a9157	-0.16657005
177	0x3cef5754	0.029216446
178	0x3e1fd7f6	0.15609726
179	0xbe5dc59f	-0.21657418
180	0xbe5f8690	-0.21828675
181	0xbe34d14a	-0.17657962
182	0xbe1f7df5	-0.15575393
183	0x3c029c8a	0.007971892
184	0x3b738dd1	0.0037163387
185	0xbe1b15ab	-0.15144984
186	0x3d3b0932	0.045663066
187	0x3dd37ac4	0.1032615
188	0xbd6f3baa	-0.05840651
189	0x3cc0023a	0.023438562
190	0xbda6a491	-0.08136857
191	0x3c9905a5	0.01867945
192	0x3dcfc26d	0.10144506
193	0xbd906315	-0.070501484
194	0x3c81d80a	0.015850086
195	0x3d5d900a	0.054092444
196	0xbe3b4a9c	-0.1829018
197	0x3bb68e64	0.0055711735
198	0xbdc326c6	-0.0952888
199	0xbde0024f	-0.1093794
200	0xbe2d9bd3	-0.16953973
201	0x3d905220	0.07046914
202	0x3d069e49	0.032865796
203	0xbd53e656	-0.051733337
204	0xbdb6d272	-0.08926858
205	0x3d41061b	0.047124963
206	0x3daaad0a	0.08333786
207	0xbe0eba17	-0.13938175
208	0xbc03a9a8	-0.008036055
209	0xbe9a5462	-0.30142504
210	0xbe4a11a5	-0.19733293
211	0x3c5efc70	0.0136099905
212	0x3cc28ea0	0.02374965
213	0x3d974f32	0.07388152
214	0xbd43b803	-0.04778291
215	0x3af29793	0.0018508307
216	0xbdb4e206	-0.08832173
217	0xbd4c30b2	-0.049851127
218	0xbe421575	-0.18953498
219	0xbc3807c9	-0.011232325
220	0x3e0e681f	0.13906907
221	0xbdc5de97	-0.09661596
222	0xbe0fde0f	-0.14049552
223	0x3da4609c	0.08026239
224	0xbd799b1b	-0.060938936
225	0x3d919fb0	0.07110536
226	0xbe09f106	-0.1347085
227	0xbdee8a20	-0.11647439
228	0x3d1bd64a	0.03804616
229	0xbe899fa3	-0.26879606
230	0xbe76cb83	-0.24101071
231	0xbd08b9c5	-0.03338029
232	0xbe0f6226	-0.14002284
233	0xbe8b33d2	-0.27187973
234	0xbc86ce00	-0.01645565
235	0xbda9b1a6	-0.08285837
236	0xbe3663d6	-0.17811522
237	0xbd3f5810	-0.046714842
238	0xbc5ee391	-0.013604061
239	0x3e0691a1	0.1314149
240	0xbde4becc	-0.11169204
241	0x3d7376d2	0.059439488
242	0xbd4ae411	-0.049533907
243	0xbd916cdb	-0.07100841
244	0xbdc97631	-0.09836996
245	0xbdcfd63a	-0.10148282
246	0xbcc3d2fe	-0.02390432
247	0x3c6bfcd8	0.014403544
248	0xbe3edc3b	-0.18638699
249	0xbcdb7b3b	-0.02679216
250	0xbe3a9d07	-0.18223964
251	0xbb9bf4a2	-0.004759387
252	0xbea12a16	-0.31477422
253	0x3e041f04	0.12902457
254	0xbee32056	-0.44360608
255	0x3d15c0fb	0.036560994
